trained_models/decoder_bs_pretrain.pt (torch, 298017 bytes, 38 tensors)

fc.weight f4 [2048, 32]
000000 7d 27 b0 3d 97 f4 ea 3d ec bb b8 3b 29 f2 6c 3c
       0.08601282 0.11472433 0.0056376364 0.014462032
000010 28 34 9e bd 30 df 78 bd 8a bd a6 3c 75 0d 03 3c
       -0.07724792 -0.060759723 0.020354051 0.007998814
000020 c5 e8 24 3d 85 b1 4c 3e 43 8e bd bd 44 3f e0 bd
       0.04026105 0.19989593 -0.0925565 -0.10949567
000030 b0 3c 32 bd e7 18 a4 3d 51 c4 0c be 41 4a 8e 3d
       -0.043514907 0.08012562 -0.13746764 0.069477566
000040 66 2d 05 be 75 dc c0 3d b8 9f 42 3d 26 32 c8 bd
       -0.130056 0.09417049 0.0475156 -0.0977519
000050 8a 54 c5 ba cc 9e c9 3d 7b 13 47 3e 90 e2 af bd
       -0.0015055102 0.09844741 0.19441025 -0.08588135
000060 86 8b 88 3d a5 0b 75 bd 3f ef 22 3d 34 36 42 3d
       0.06667237 -0.05982556 0.039778944 0.047414973
000070 eb 0f bf 3d 73 a9 fb bc d9 80 c8 3d 15 a5 17 3e
       0.09329208 -0.030720448 0.09790201 0.14809068
000080 c4 4b d8 bd 97 71 e4 bd d0 8b c4 3c 70 b9 eb bd
       -0.10561326 -0.11154478 0.023992449 -0.11509979
000090 e2 b1 73 bd 46 d4 32 3c 58 24 de 3d 28 98 73 3d
       -0.059495814 0.010914868 0.10846776 0.05947128
0000a0 d0 26 f7 bd 9a 4b 24 bc af be c9 bd 92 6a 44 3d
       -0.1206795 -0.01002779 -0.09850823 0.047953196
0000b0 1e 39 15 bd 57 04 90 3d c3 f4 63 3d 72 ad 0a 3e
       -0.036431424 0.07032078 0.055653345 0.13542727
0000c0 6a 0a 47 3d e1 e9 30 bd e0 36 dd bd 7a dd c9 bd
       0.048593916 -0.043191794 -0.10801482 -0.098566964
0000d0 50 80 54 3c d4 c3 28 3d 44 04 96 3d 03 25 99 bc
       0.012970045 0.04120238 0.07325032 -0.018694406
0000e0 94 01 51 be 63 8f 8a 3d 0f 44 81 3d c7 41 a0 bd
       -0.20410758 0.0676563 0.06311809 -0.07825046
0000f0 05 bc 8d bd 37 f2 69 39 ab 9c f9 3a f8 04 0e be
       -0.069206275 0.00022310844 0.0019043883 -0.13869083
000100 5e 19 4a 3e 29 40 13 3e 68 a7 d0 3d f3 e2 9c bd
       0.1973624 0.14379944 0.1018818 -0.07660475
000110 94 ef 7f 3d 29 19 d0 bd 9d 63 b9 3b 46 19 0c 3d
       0.06248434 -0.10161049 0.005657627 0.03420379
000120 53 cf eb bc ff 91 c5 3d b1 1d 94 bc bc ae 14 3b
       -0.028785383 0.09646987 -0.018080564 0.0022687158
000130 41 69 22 3d 54 73 4f 3b 9d 55 1c be eb 1f 8e bd
       0.03965116 0.0031654434 -0.15267034 -0.069396816
000140 0d 04 f9 bc 0f 4d 7a 3d 5f a4 e4 3c 0a e5 e2 3d
       -0.03039744 0.061108645 0.02791041 0.11078842
000150 8b dc e2 bc 01 53 4c 3d 39 7d 2f 3e 2e 4b bb 3d
       -0.027693054 0.049883846 0.17137612 0.09145199
000160 6c 68 f3 3d 50 f8 9b bd 6b 6d 03 be 4c 8c 49 be
       0.11885151 -0.07615721 -0.12834708 -0.19682425
000170 6b 23 2a 3e ca 46 eb 3d b8 89 1a 3d 11 52 d7 3d
       0.16615073 0.11488111 0.037728995 0.105137
000180 ec c2 67 3d 8f ce 44 3d 69 5d df 3d 20 aa ae bd
       0.056582376 0.048048552 0.109064884 -0.085285425
000190 05 f9 c1 bd 32 9d 04 3c 3e 6f 0f 3d 23 41 c7 3d
       -0.09471325 0.008094119 0.0350182 0.09729221
0001a0 04 00 b1 bd b3 19 f2 3c 68 17 26 bd c8 38 2c be
       -0.08642581 0.02955327 -0.040549666 -0.16818535
0001b0 e9 74 07 3d 91 c6 2c 3e e5 2d f9 3d fb 80 33 3c
       0.03307048 0.16872622 0.12166957 0.010956044
0001c0 65 42 81 bd 9e fa f5 bd 3e dc b4 bd 3b d4 3f 3e
       -0.06311492 -0.12010692 -0.0883107 0.18733303
0001d0 cd 4d 93 bc 3c a1 d6 bc e5 99 8d bd 13 18 c0 bb
       -0.017981434 -0.02619993 -0.06914119 -0.005862245
0001e0 95 58 ff 3d 5d 80 15 3d ac 1c 24 3e f7 14 1c be
       0.124680676 0.03649937 0.16026562 -0.15242372
0001f0 87 cb 53 bd dc 6e 86 bd 45 f1 94 bd 5b 88 89 3d
       -0.05170777 -0.065641135 -0.07272581 0.06715461
000200 01 65 65 bc ba 1e db 3d 16 34 ae bd c0 b2 2e 3e
       -0.014001132 0.1069922 -0.08506028 0.17060375
000210 cf c5 33 be 9c b2 a0 3d dc 40 03 be bf 51 0f be
       -0.17555927 0.07846567 -0.1281771 -0.13996027
000220 f7 22 cb bd 22 94 26 bd 72 98 d7 3c cf 2a e4 bd
       -0.099187784 -0.040668614 0.026317809 -0.111409776
000230 90 05 a2 3b 66 ea f7 bd d7 3a 0a be b7 d9 c0 3d
       0.0049445108 -0.12105255 -0.13499008 0.09416526
000240 e3 ff 67 bd c9 14 07 3e e6 b0 39 3a 01 05 c5 3d
       -0.056640517 0.13191523 0.000708355 0.09620095
000250 1a 77 e1 bd 77 cd be 3d 90 3e 91 3d 5c 5e 26 3e
       -0.11009045 0.09316533 0.07092011 0.16246933
000260 2b d5 03 be 81 69 bf 3c fa f8 b7 3d f2 63 cc 3d
       -0.12874286 0.023365738 0.089830354 0.099800006
000270 fe 66 33 3e 59 81 c9 bc 3e 97 11 3e 50 c0 a5 bd
       0.17519757 -0.02459781 0.1421785 -0.08093321
000280 9e a0 21 be 77 87 cd 3d 06 f6 c0 3d 7d 00 e1 3d
       -0.15783927 0.100356035 0.09421925 0.10986421
000290 48 5f 2c bd 8e 98 12 3c f3 3e 55 bc 99 dd f1 3d
       -0.042083055 0.008947505 -0.013015497 0.118098445
0002a0 fb 10 c4 3d ff 07 9d bd 71 6b 5c 3d a1 7a a2 3d
       0.09573551 -0.07667541 0.0538134 0.07933546
0002b0 91 05 7d bd 66 46 7e 3c 1f 2d 30 be 2c 9c bf 3d
       -0.061772887 0.015519714 -0.17204712 0.09355959
0002c0 62 b5 c0 3d bb 22 0d be 63 44 bd 3d a0 dc 8a bd
       0.09409596 -0.1378278 0.09241559 -0.06780362
0002d0 e5 ed 03 be 22 e0 4b be ff 0d 86 bd 50 d9 22 be
       -0.12883718 -0.19909719 -0.06545638 -0.1590321
0002e0 38 4a 15 be 46 11 d4 3d 4f 3d 91 3d 45 de 29 bd
       -0.14579093 0.10354857 0.07091772 -0.04147174
0002f0 d1 e5 5d 3d 2d 58 28 bd d5 63 9d 3b 13 17 42 be
       0.054174248 -0.041099716 0.0048031607 -0.18954115
000300 87 e5 0e be 20 cc d4 bd 3b b7 bd bd 7a 55 34 bd
       -0.13954745 -0.10390496 -0.09263464 -0.04402683
000310 00 a8 d6 bc 76 b9 92 3d 9a 69 1a bd 4e ba 36 bc
       -0.026203156 0.0716428 -0.037698366 -0.011152817
000320 43 83 1d 3d 2c ae 0d bd 2e 60 a1 3d 12 d7 ed bd
       0.03845526 -0.03458993 0.07879673 -0.11613287
000330 bf fc e5 3d df 22 44 3d 46 ca 92 bd c8 98 49 bd
       0.11229848 0.04788482 -0.07167487 -0.04921797
000340 e9 20 9c bd 6d b9 b8 3d 07 d8 07 be f9 24 cb bd
       -0.076234646 0.09019742 -0.13266002 -0.09919161
000350 d1 9e fa bd 3e 96 b0 3d cf f7 9f bc 38 bd b1 3d
       -0.12237323 0.086224064 -0.019527344 0.08678669
000360 6a 12 20 3e 0b 1e c7 3d 5e a5 00 be 53 ba 2d 3d
       0.15632024 0.09722527 -0.12563083 0.04241402
000370 d6 62 59 3d 8c 1f fc bc 50 71 9c 3d 60 a0 80 3d
       0.053072773 -0.030776761 0.076388 0.06280589
000380 15 84 e6 3c eb 82 40 3e 9c fb 5f be 52 04 30 be
       0.028139153 0.18799941 -0.21873325 -0.17189148
000390 e7 aa d4 3d af 0b 09 be 62 9c d3 3c 76 04 3f 3d
       0.103841595 -0.13383363 0.025831405 0.046635114
0003a0 5b f7 15 3e fc bc a3 bd 28 c6 ec bb 60 82 83 3c
       0.1464514 -0.0799503 -0.0072257705 0.016053379
0003b0 e5 d8 8d 3b f9 6c b5 3d ec b3 79 3d c9 9d 25 3e
       0.0043288344 0.088586755 0.060962602 0.16173472
0003c0 35 e4 a9 3c a0 38 11 3d 67 17 d3 3d cd b5 3a bd
       0.0207387 0.035454392 0.10307198 -0.045583535
0003d0 72 1b af 3d 9a 37 20 3e 16 be 95 bc 31 bb b9 3d
       0.08550157 0.1564621 -0.018279117 0.09068907
0003e0 c4 16 a1 bd 8e 72 0a 3e 79 79 29 be 72 b8 05 be
       -0.0786567 0.13520262 -0.16550244 -0.13058642
0003f0 a4 6e 14 be 28 6e 1c bd 59 3e 32 ba 98 5c 78 3d
       -0.14495331 -0.03819099 -0.00067994517 0.06063518

fc.bias f4 [2048]
000000 46 0b 90 3d 74 fb e8 bd a3 0c bc 3c 55 36 cc bd
       0.070334 -0.11376086 0.022955244 -0.099713005
000010 27 61 0a be 47 a0 1d be 50 b4 66 bd eb c7 cb 3d
       -0.13513623 -0.15393172 -0.056324303 0.09950241
000020 55 2c 9b 3d b9 ea 8c bd 49 22 b8 3d 59 e7 1c 3d
       0.07576815 -0.06880707 0.089909144 0.038306568
000030 0b a7 2a be 14 ff 1b 3d c0 8c 22 bd 18 5b dd bc
       -0.16665284 0.03808506 -0.03968501 -0.027020976
000040 3c a5 0a bd 68 24 e6 bd 56 c3 94 bc 79 7d a3 bd
       -0.033848986 -0.11237413 -0.01815955 -0.079829164
000050 bb 2a 38 3d ae 4f 17 be b7 40 26 be c0 4b af bd
       0.044962626 -0.14776489 -0.16235624 -0.0855937
000060 92 95 19 be fe b0 c0 bd 43 4d 93 3c 6e c9 38 bd
       -0.14998463 -0.094087586 0.017981177 -0.045113973
000070 f6 27 00 be b7 cd 25 3c a4 9d e3 3d 37 82 35 be
       -0.12515244 0.010119847 0.11114052 -0.17725454
000080 30 b1 2b be 04 55 4e bc e6 54 3d bd 81 90 79 3d
       -0.1676681 -0.0125935115 -0.046223544 0.060928825
000090 bb f4 dc bd c6 16 08 be 82 97 12 3e 73 68 4e 3d
       -0.10788866 -0.13289937 0.14315608 0.05039258
0000a0 a8 bd d1 bd b7 70 af 3c 95 c3 18 be f0 2e b0 3d
       -0.10241252 0.021416051 -0.14918359 0.086027026
0000b0 76 86 1f be a1 9f da bd 49 4e 1c 3d 9e c1 f3 3d
       -0.15578637 -0.10674978 0.038160596 0.11902164
0000c0 30 c6 a9 bd 00 12 9b bd b7 db 26 bc aa 12 18 3d
       -0.082897544 -0.075717926 -0.01018422 0.037127174
0000d0 ea f4 20 be d5 6e 94 3c e0 1a 9c bd c3 c2 95 3c
       -0.15718427 0.018119255 -0.076223135 0.018281346
0000e0 6b 18 98 bd 13 07 e9 bb 06 6d 19 be 3f 63 c0 3c
       -0.07426532 -0.007111439 -0.14982995 0.023484824
0000f0 04 7f 76 bd a1 f4 e2 3d 78 6c 26 be d4 74 a3 bd
       -0.060179725 0.110818155 -0.16252315 -0.079812676
000100 36 d3 ce 3d 7d 51 04 bd ab 55 ff bc 7c df 0c 3e
       0.10098879 -0.032304276 -0.03116878 0.13757128
000110 ef 58 2d be db b8 8b 3c 9b ee 91 3d ce 12 84 3c
       -0.16928457 0.01705592 0.071255885 0.016122248
000120 e2 be 13 3d 56 f2 68 3d c2 9d df 3d d4 2f 1c 3e
       0.036070712 0.056871735 0.10918762 0.1525262
000130 6e 52 24 be ec ee d3 3d 37 8f 95 3c d2 a2 3f be
       -0.1604707 0.10348305 0.018256767 -0.18714455
000140 fc 8f 5e 3d ff f0 80 bd 1a f2 c7 bc a7 c0 af bd
       0.054336533 -0.06295966 -0.024407435 -0.085816674
000150 11 65 28 be a5 9f f3 bd 8b 76 fd bd 73 0a 94 bd
       -0.16444804 -0.11895684 -0.12376126 -0.072285555
000160 f8 1f 44 bb 71 ae fc bd 7a e2 4e bc 34 9d ac 3d
       -0.0029926281 -0.123379596 -0.012627238 0.084284216
000170 ea 43 9f 3d 4d 62 ff bd 59 f9 be 3d 57 c5 09 3c
       0.077766255 -0.12469921 0.09324903 0.008408866
000180 b0 4d 3e bd 57 a2 8b bd 51 de 79 bd f9 4a 61 bd
       -0.046460807 -0.06818073 -0.061003033 -0.05500314
000190 bb f7 2e bd 42 11 8b 3d 66 74 ee bd d0 d5 64 bd
       -0.042716723 0.06790401 -0.11643295 -0.05586797
0001a0 70 db ad bd db 8f f7 bc 4b 8a 88 3d 27 09 20 be
       -0.0848912 -0.030219963 0.06667002 -0.15628491
0001b0 1c 9c 8a bd f2 8b 2c bd 01 f0 1c 3d 0c 9d 85 bd
       -0.06768057 -0.04212565 0.038314823 -0.06524095
0001c0 f1 db 57 3d b1 aa 30 be 5e 30 8d bd 46 ab 42 3d
       0.052699987 -0.17252614 -0.06893991 0.04752662
0001d0 e4 5b e8 bd 9e 9b f3 bd a6 8a 8e 3d 18 e8 d2 3d
       -0.11345652 -0.11894916 0.06960039 0.102981746
0001e0 cf 96 8a 3d fd 48 c1 3d b7 9f 63 3d 9b 25 ad 3b
       0.06767046 0.094377495 0.055572238 0.005284024
0001f0 af 96 5a bd ee e2 9a ba c0 0c 2b be 99 eb b1 bd
       -0.05336636 -0.0011816898 -0.16704082 -0.08687515
000200 be 63 80 bb e6 9c 93 bd 38 a2 bf 3c 4c 56 fd 3d
       -0.00391814 -0.072076604 0.023392782 0.123699754
000210 3f f8 1a be af 43 be 3d 5b ec 06 be d1 8b 0c 3e
       -0.15133761 0.09290253 -0.131761 0.1372521
000220 f7 c7 a5 3c a6 3b a1 bd 6e 9c a3 3c 77 0c 18 be
       0.020236952 -0.07872705 0.019972052 -0.14848505
000230 96 4c c3 bd fa 72 e1 bd c9 77 fc 3c a8 15 dc bd
       -0.09536092 -0.11008258 0.030818837 -0.10746318
000240 e8 16 15 be 57 2b 8d 3d dd d0 19 be 48 48 03 be
       -0.1455952 0.06893032 -0.15021081 -0.12820542
000250 3a d1 b0 bd 21 42 e8 bd 16 06 1a 3e 38 e2 13 3e
       -0.08633657 -0.11340738 0.15041384 0.14441764
000260 52 59 d8 bc 5b aa 89 bb f3 b2 6f bc af 30 23 3d
       -0.026409779 -0.004201216 -0.014630067 0.03984135
000270 3f c0 cb bd 4e ef e9 bd 94 ed 0e bd 83 c5 36 3c
       -0.099487774 -0.11422597 -0.03489454 0.011155489
000280 a6 ac 80 bd a8 71 78 bd 7f 52 17 be 22 1d 24 be
       -0.0628293 -0.060655266 -0.14777564 -0.16026738
000290 38 7d 0d 3e 25 5a e8 3d e8 70 be 3d b4 06 31 be
       0.13817298 0.11345319 0.09298879 -0.17287713
0002a0 44 2e 60 bc cc ed 40 bd f4 77 82 3d 84 54 11 3e
       -0.013682906 -0.04710178 0.063705355 0.14192396
0002b0 e2 c3 c5 3d fa 29 03 be 41 63 05 3d ec 61 0d be
       0.09656502 -0.12808982 0.03256536 -0.13806885
0002c0 6e e6 0d 3e c5 5c 06 be a4 cd f5 3d c6 37 e2 bd
       0.13857433 -0.13121326 0.120021135 -0.11045794
0002d0 57 4b a9 bd 07 61 92 3d 85 1c 3d 3c 30 ba 9b 3c
       -0.08266323 0.07147413 0.011542444 0.01900968
0002e0 88 e6 74 3d b4 95 90 3d 86 b0 ed 3d bf 48 9d bd
       0.059790164 0.070598036 0.11605935 -0.07679891
0002f0 fd 9a 58 3d d4 69 82 3d 23 cd b7 3d 7d 02 14 be
       0.052882183 0.06367841 0.089746736 -0.14454074
000300 01 a5 d7 3d ad 96 65 bc 29 ab 36 bd 03 03 11 be
       0.10529519 -0.014012975 -0.044596825 -0.14161305
000310 14 8a ea 3b 14 a8 5d 39 c1 6d db bd 17 db 74 bd
       0.0071575735 0.00021138816 -0.10714293 -0.059779253
000320 35 7e 98 bd ee b6 d9 3a 48 b0 a1 3d 22 dd 9b 3d
       -0.07445947 0.0016610303 0.07894951 0.07610537
000330 1f de a9 bd 12 62 ee 3d 51 29 b8 3c 51 64 cd bc
       -0.08294319 0.11639799 0.022480639 -0.025072249
000340 83 e7 f9 bd f6 ee 84 bd 16 3a 00 bd 43 93 12 3e
       -0.122023605 -0.06490891 -0.031305395 0.14313988
000350 0b 8e 04 3d 67 0b bc 3d 37 a4 2f be 10 45 3d be
       0.032362025 0.09181862 -0.17152487 -0.18483377
000360 a9 bc 78 bd b7 d8 02 be 51 7b 9c bc f4 58 43 bd
       -0.060726795 -0.12777983 -0.01910177 -0.047692254
000370 12 c2 17 be 54 29 a0 bd f8 ee d7 3d 62 ff 8a 3d
       -0.14820126 -0.07820383 0.105436265 0.06786992
000380 e1 3b 53 bb 5c b2 b2 3d 39 12 ca 3c d3 53 d4 3d
       -0.0032231736 0.087254256 0.024666892 0.10367551
000390 85 95 70 3d 47 6a 23 3c 52 27 80 bd c5 b8 0f be
       0.058736343 0.009974069 -0.062575 -0.14035328
0003a0 7c da e3 3d e9 90 17 be 00 0c c4 bd b5 ce 3f bc
       0.11125657 -0.14801373 -0.09572601 -0.011706998
0003b0 5a d3 80 bd a1 40 20 be 3e 69 3e bd a3 8a ff 3d
       -0.06290312 -0.15649654 -0.046487086 0.12477615
0003c0 e3 9e 89 3c 86 97 88 3d ee 0b 0a 3d d6 d7 27 be
       0.016799396 0.06669526 0.033702783 -0.16390929
0003d0 a7 00 42 3d ac 16 70 bc 64 1d 58 bd 94 73 1b bd
       0.047363903 -0.014653843 -0.052762404 -0.03795202
0003e0 c4 d4 f0 bd 33 e1 c1 3c 8f 97 0b bd d1 6f 6d bd
       -0.11759332 0.023666954 -0.034080084 -0.057967965
0003f0 19 e5 01 be 5f f0 83 3d a1 78 b3 bd 43 ad 8e bd
       -0.1268505 0.064423315 -0.087632425 -0.06966641

refine1.conv1.0.weight f4 [8, 2, 3, 3]
000000 6e e2 d5 bd dc d7 c8 bd be 45 c9 bc 50 f6 ec 3b
       -0.10443579 -0.09806797 -0.024569388 0.007231511
000010 15 1d c4 ba 4b ca 2c 3e ca 1c 92 bd 47 de 75 bd
       -0.001496228 0.16874044 -0.07134397 -0.060026433
000020 02 03 7c 3d b6 7f f2 3d 61 a5 8a 3d 14 e9 fc bd
       0.061526306 0.11840765 0.06769825 -0.123491436
000030 53 a9 20 3c ff f1 39 be 8b 53 02 3e 21 44 11 3e
       0.009805995 -0.1815872 0.12727182 0.14186145
000040 fd 02 01 3e d2 c5 42 3e 7b 23 ac bd 33 b1 11 3e
       0.12598796 0.19020775 -0.08405205 0.14227752
000050 50 39 14 3c ab 20 51 be bb 47 3a be 4f bd 09 be
       0.0090468675 -0.20422618 -0.18191426 -0.13451122
000060 2d ad 0e be 38 52 2a 3e 23 34 d1 bc 70 66 c1 3d
       -0.13933249 0.16632926 -0.025537556 0.094433665
000070 95 0d 2f be a3 3f 43 bc 0f d8 0e bd 40 37 c2 3d
       -0.17095025 -0.011917028 -0.03487402 0.09483194
000080 62 3a 56 3e b2 ef 09 3e 24 96 50 3e f1 0b 3c b9
       0.20920709 0.13470343 0.20369774 -0.00017933526
000090 e0 77 75 3e 1a 33 26 3e 1a 2b 30 be 95 74 b7 bd
       0.2397151 0.16230431 -0.17203942 -0.08957783
0000a0 43 bd 48 be 14 ae 75 3e 0b 07 e3 3a 80 c4 7c be
       -0.19603448 0.23992187 0.0017320825 -0.24684334
0000b0 9a 0a 76 3e fa 85 4f 3e 32 40 31 be 34 e5 07 be
       0.24027482 0.20265952 -0.17309645 -0.13271028
0000c0 75 67 26 3e 38 1f e4 3d 5a 04 b4 3d fc 9d 4a 3d
       0.16250403 0.11138767 0.087898925 0.049467072
0000d0 06 d3 cc bc 7a 73 d7 bd bb 7c 32 be 2a 29 13 be
       -0.025002968 -0.10520072 -0.17430393 -0.14371172
0000e0 c4 f4 f3 3d 94 74 e2 3d 50 6f 11 3e 06 6f 69 bd
       0.1191192 0.11057392 0.14202619 -0.056990646
0000f0 0b 62 7c 3e 0d bf 5d 3d 49 a0 ee 3d 5d b0 dd bd
       0.24646775 0.05413728 0.11651666 -0.10824654
000100 cc dd 8e 3c b9 bf 32 bd 1f 20 2f 3d e6 78 0e 3e
       0.017439745 -0.043639872 0.042755242 0.13913307
000110 5f ff 74 3d 75 3c 2b 3e cd 7f e1 3c e7 a6 20 bd
       0.059813853 0.16722281 0.02752676 -0.03922167
000120 b5 a0 2f 3d 43 5f d0 3d e6 6f 63 3e cc 07 d3 bd
       0.04287787 0.1017442 0.22210655 -0.103042215
000130 a7 5b ad 3d 67 21 a4 3d 1a 95 6a 3b 94 a7 36 be
       0.08464747 0.080141835 0.0035794438 -0.17837363
000140 83 5f 88 3e 50 0c dc bd cf 12 35 be 0e ab 24 3b
       0.2663537 -0.10744536 -0.17682956 0.002512637
000150 4d 6c 85 3e 48 7f a1 bd a0 d5 9b bd f5 27 37 be
       0.2605919 -0.07885605 -0.07609105 -0.17886336
000160 00 e2 7d bd 3e 6e 72 3e 41 fd b3 bd 60 b7 2c be
       -0.06198311 0.23674867 -0.08788539 -0.16866827
000170 fd e4 10 be d2 69 b0 3d f6 6c 38 be 5d 43 7e 3d
       -0.14149852 0.086139336 -0.18010315 0.06207596
000180 64 09 ac bd 30 28 aa 3d f9 0e ae bd 12 91 e3 3d
       -0.084002286 0.083084464 -0.084989496 0.11111654
000190 b4 d6 d5 3d f0 06 62 3e b5 7b 6d 3e d8 aa b4 3d
       0.10441342 0.22072959 0.23191722 0.08821648
0001a0 fa 78 43 be 8d c0 09 3e 06 20 2a be d5 80 d4 3d
       -0.19089118 0.13452359 -0.16613778 0.10376135
0001b0 86 df 73 bd df 94 0e be 74 c8 b6 bd fe 25 38 be
       -0.05953934 -0.13923977 -0.08924952 -0.17983243
0001c0 4e ed 15 3d 3c fb 84 3e e3 08 fa 3c bc cf 40 3d
       0.036603265 0.25972927 0.030521816 0.04707311
0001d0 b6 b2 5c be 65 49 3f 3e 10 d0 6d bd 10 c0 4b be
       -0.21552548 0.18680342 -0.058059752 -0.19897485
0001e0 7b ab 40 bd 21 ca 15 be 56 20 6f be e4 c9 4b 3e
       -0.047038537 -0.14627887 -0.23352179 0.19901234
0001f0 1c cc 1a 3e a6 48 2b 3d 7c 12 14 be 42 e9 c2 bd
       0.15116924 0.04181733 -0.14460176 -0.09517147
000200 c3 3f 42 bd 94 f9 b3 3d 38 a7 2c 3e ca f5 30 3e
       -0.04742409 0.087878376 0.16860664 0.17281261
000210 a3 39 2e 3c 0a 77 85 be c8 2a d3 3d ea 09 a6 3b
       0.010633859 -0.26067382 0.10310894 0.0050671
000220 05 08 14 3e 5e 8b fb bd c4 08 3d be 85 af 77 ba
       0.14456184 -0.122824416 -0.18460375 -0.00094484567
000230 7c 2d c7 3a cb c3 14 3e 13 b5 f9 bd 6c a2 24 3e
       0.001519605 0.14527814 -0.1219274 0.16077584

refine1.conv1.0.bias f4 [8]
000000 04 5f 32 bc d7 50 32 3d f0 f6 ef 3a 2a 9a cc 3d
       -0.010886911 0.043534126 0.0018307846 0.09990342
000010 08 50 f3 3d 38 9f 3f 3e b9 61 91 bd 88 79 21 bd
       0.11880499 0.18713081 -0.07098717 -0.03942254

refine1.conv1.1.weight f4 [8]
000000 31 d6 80 3f df 72 87 3f 57 eb 80 3f b2 71 7c 3f
       1.0065366 1.0581931 1.007182 0.98610985
000010 60 38 76 3f ee 61 80 3f 28 f6 7c 3f 75 cb 7c 3f
       0.9617977 1.0029886 0.98813105 0.9874795

refine1.conv1.1.bias f4 [8]
000000 16 81 54 bd 6c bf 50 bd 8b f3 67 bd 7d 2b b3 bd
       -0.05188092 -0.050963804 -0.056628745 -0.08748529
000010 51 7a 9c bd 0e dc 87 bd ca ec 06 bc 0a 18 5a bb
       -0.076405175 -0.06633769 -0.008235166 -0.0033278489

refine1.conv1.1.running_mean f4 [8]
000000 86 50 b7 bd 34 56 c4 3c 8f bb 9e bd 7d c5 44 bd
       -0.089509055 0.023966886 -0.07750618 -0.048039902
000010 39 08 60 3d a4 f3 1a 3e a0 00 81 3c a8 28 34 bd
       0.05469534 0.15132004 0.015747368 -0.043984085

refine1.conv1.1.running_var f4 [8]
000000 55 df af 3d 4a 91 15 3e 95 de 5f 3e 3c 0e fc 3d
       0.08587519 0.14606205 0.21862252 0.123074025
000010 8e 17 20 3e 3f a6 ef 3d 1a 32 2c 3e c8 1d 10 3e
       0.15633985 0.11701631 0.16815987 0.1407386

refine1.conv2.0.weight f4 [16, 8, 3, 3]
000000 83 bd 5f 3d 6d 6f 0f 3e 9c 61 81 3d 12 49 1b 3d
       0.05462409 0.1400735 0.06317446 0.037911482
000010 99 ee c8 bd 14 22 86 3d 97 33 ef bc 9e 63 a2 bd
       -0.09811134 0.06549469 -0.029199405 -0.07929157
000020 db 20 5c 3d 11 21 a0 3c 66 5a d2 3d f4 6c 47 3d
       0.05374227 0.019547017 0.102711484 0.04868789
000030 78 82 d6 bc e4 c3 9e bd 4a 15 c1 3d b9 c8 9a bd
       -0.02618526 -0.07752207 0.09427889 -0.07557816
000040 02 52 0b bd bf 24 55 bd 35 d1 1f bd d2 37 8f 3d
       -0.034013756 -0.052036997 -0.039017875 0.06993069
000050 40 9a 3d bd e0 30 42 3d 14 3a ad 3c 33 4a 83 3c
       -0.046289682 0.047409892 0.021145858 0.016026592
000060 a6 75 86 bd 99 b6 ac 3d 1f ee 86 3c 29 40 da 3c
       -0.065654084 0.08433265 0.016470967 0.026641922
000070 08 9a 88 3d 51 fd aa 3d 8c e5 49 bc 3a 28 bf 3c
       0.06670004 0.083490975 -0.012322795 0.023334611
000080 cc 92 24 3d cc 2c 54 3d cb 3c 96 3d df c3 71 3d
       0.04017906 0.051800534 0.07335814 0.059024688
000090 1d a8 b1 3d 6a 27 a2 3b 0e ae 87 3c 84 ed 9d bd
       0.08674643 0.004948546 0.016562488 -0.07711318
0000a0 5f 29 ef 3d 0e a5 12 bd 8d dc e3 3c a4 aa 48 bd
       0.11677813 -0.03580194 0.027815128 -0.04899086
0000b0 9a b7 ed bc b7 7b 93 bd 69 58 3f bd 95 2d 9b 3d
       -0.029018212 -0.07201331 -0.046715174 0.075770535
0000c0 d0 2f 1b 3e e3 d9 91 3d 6b d4 9b 3d fd 15 59 bd
       0.15154958 0.07121637 0.07608875 -0.052999485
0000d0 48 02 0f bd 1a 33 f6 3c 63 e3 af bd 33 ac 9b 3c
       -0.034914285 0.030053664 -0.085882924 0.01900301
0000e0 84 8a 81 3d 83 52 b3 3c 21 fc 2c 3c b8 9b bf 39
       0.06325248 0.02188993 0.010558159 0.00036546378
0000f0 86 b2 0c bd 76 5f d8 bd 2c 6c f3 bc 67 5d 40 bd
       -0.03434994 -0.10565083 -0.029714666 -0.046964075
000100 b7 78 02 bc de 36 3b bd 22 f5 0e 3d a1 78 b4 bd
       -0.007963351 -0.045706622 0.034901746 -0.08812071
000110 b4 4c 82 bd 2d 2c a0 3c 70 58 9b bc b0 2b 81 3d
       -0.06362286 0.019552315 -0.018963069 0.06307161
000120 7e a4 a0 bc a4 85 e3 bd 11 1b 06 3e 2b 25 b6 3d
       -0.019609686 -0.11109474 0.13096263 0.08893808
000130 1c 16 4c bd ed d6 b2 3d 05 74 d4 bc ab 1b ec 3d
       -0.049825773 0.087324 -0.025934229 0.11528715
000140 eb 83 c6 3c 30 65 43 3d fb f2 02 bd 6e 63 dc 3d
       0.024232825 0.04770392 -0.031970005 0.10761152
000150 8f 35 d1 bc 4a 3b a3 3d 32 5b c0 3d 10 c4 e7 bd
       -0.025538234 0.07970293 0.09392394 -0.11316693
000160 6e bc 4c bd 77 d3 86 bd b2 d9 ee 3c fc 48 1d 3d
       -0.049984388 -0.065833025 0.02915654 0.03839968
000170 19 61 ef bb c6 eb b1 3d d6 e7 e1 bc 80 0f de bc
       -0.007305276 0.08687548 -0.027576368 -0.027107
000180 d4 c4 32 bd 1d ce 19 bd c2 1d 97 3d 05 9c a8 bd
       -0.04364474 -0.03755008 0.07378723 -0.08232883
000190 09 62 81 3d 10 8b 50 bc 6d dc 9f bd a2 3d a6 bd
       0.06317527 -0.012728468 -0.07805715 -0.08117224
0001a0 f4 4d d2 3c 0c 1c d5 bd 4c a0 e2 bc 6f aa 69 3c
       0.025671937 -0.1040574 -0.027664326 0.014261826
0001b0 1b 17 e3 bc 83 bf e8 3c 2c c6 89 bd 92 e7 a9 3c
       -0.027720978 0.028411632 -0.067272514 0.020740304
0001c0 39 35 91 bd 90 48 bb 3d cb 06 e9 3c 42 a4 9b bd
       -0.070902295 0.091446996 0.028445622 -0.07599689
0001d0 6a 20 a6 bd 28 6d a1 bb 8d c5 e0 bd f5 f0 c7 3c
       -0.08111651 -0.0049263425 -0.1097518 0.02440689
0001e0 d4 d3 8a bd 3b 6d 05 3e 44 ec ea bc f6 84 a1 bd
       -0.06778684 0.1302995 -0.028677113 -0.078866884
0001f0 75 b6 cb bd 47 91 9e 3c 2d 7b e8 bd 0c c1 be 3d
       -0.0994691 0.019356383 -0.11351619 0.093141645
000200 e4 d2 7a 3d cf 14 ca 3c 4f 08 8e 3d fa 28 8c 3d
       0.061236277 0.024668125 0.069351785 0.06843753
000210 83 85 d4 3d 13 b8 c6 bd c5 69 0d 3d aa 7f a3 3c
       0.10377028 -0.09703078 0.034524698 0.019958336
000220 8b ca 4e 3d de c5 ae bd 68 97 93 bd f2 ad df 3d
       0.05048613 -0.08533834 -0.07206613 0.10921849
000230 0b 0e 28 bd 3c 48 5f bd a0 56 c3 bc 7a 0a 20 3d
       -0.041029017 -0.054512247 -0.023845017 0.03907249
000240 2b f2 9b bc 32 b2 5b bd f7 66 c6 bd ed e6 e6 3d
       -0.019036373 -0.053636737 -0.09687608 0.11274514
000250 7f 70 57 3c a5 ae bc bd b6 8e a1 3d cd a8 63 3c
       0.01314938 -0.09212998 0.07888548 0.013895226
000260 58 62 e6 3b 4c 46 ad bd 0b 98 6c 3d 4b f2 d4 3c
       0.0070307665 -0.08460674 0.057762187 0.02599444
000270 09 65 c2 3c 51 4f 05 3e 8b 9f 44 3d 4a 17 2b 3d
       0.023729818 0.13018538 0.048003715 0.041770257
000280 60 37 8a bd c9 22 b6 bd d0 19 95 3c c9 af aa bd
       -0.06748843 -0.088933535 0.018200785 -0.083343096
000290 53 6d 00 bd 6a 1b 46 bd dc 03 72 3d af aa c9 bd
       -0.03135426 -0.048365988 0.05908571 -0.098470084
0002a0 77 82 a6 3c 84 20 d5 3c be 4f 1b 3e 82 fa aa 3d
       0.020325882 0.026016481 0.15167138 0.08348562
0002b0 fb 93 d0 3c c2 93 ad bc 2c 44 1c bd 34 54 c5 bd
       0.025461188 -0.02118862 -0.03815095 -0.09635201
0002c0 84 9e d5 3d 87 a4 7d bd cb 23 2c 3d bd 5d 52 3c
       0.10430625 -0.061924484 0.042026322 0.012839732
0002d0 02 93 8d 3d 53 34 5d bd a7 cb 13 be 4b b7 82 bd
       0.06912805 -0.05400498 -0.14433156 -0.063826166
0002e0 62 f5 53 bd 3f 20 48 bd 50 b6 0a 3e cf 4b 62 3c
       -0.051747687 -0.048858877 0.13546109 0.0138120195
0002f0 50 e9 ca bd 80 f0 e8 3d 06 e5 e6 bc 25 1b bb 3b
       -0.09907782 0.11373997 -0.028185379 0.005710023
000300 5a 70 16 3c af c2 dd bd ab 81 9a bc 99 ca 82 bd
       0.00918206 -0.108281486 -0.018860659 -0.06386299
000310 ef bc 9e bd 9a 33 38 bc dc 8f 26 3d 14 13 01 3b
       -0.0775088 -0.0112427715 0.04066454 0.001969521
000320 d2 47 86 bd af 2e 31 3e d0 80 0a bd 89 ac b9 bc
       -0.065566674 0.17302965 -0.03381425 -0.022665279
000330 62 18 27 bd 70 b7 c0 bd e4 e3 68 3c 91 51 a2 3d
       -0.040794738 -0.09409988 0.01421449 0.07925714
000340 ef 14 30 3c c9 ca d1 ba f3 19 99 bd 15 7e 2c bd
       0.010747178 -0.0016005869 -0.074756525 -0.04211243
000350 67 22 1c bc a0 86 de 3b 2c e1 20 3d 5a 06 0e 3d
       -0.0095296865 0.006790951 0.03927724 0.034674026
000360 7b bb b6 bd f7 cd c9 3c c6 a4 c2 3b 9a 98 e1 bd
       -0.08922478 0.024634345 0.0059400527 -0.110154346
000370 84 f7 ec 3d 41 21 d9 3c 9e d6 1b be 03 d1 00 3b
       0.11570647 0.026505115 -0.15218589 0.001965583
000380 9e 46 b5 bd 53 88 c1 bd 99 98 9a bd 43 aa 2b 3d
       -0.0885136 -0.0944983 -0.07548637 0.04191042
000390 15 60 f0 3d bd 7b e8 3d 5d 23 28 3d 6d 48 62 3d
       0.11737076 0.11351726 0.04104935 0.05524485
0003a0 e3 ad c5 bd f4 4a de bc 3a 02 b1 bd 78 a3 b7 bc
       -0.09652307 -0.02713535 -0.08643003 -0.022416815
0003b0 33 f4 99 3d 1e 83 fc bd b6 c7 72 bd ca c7 ca bd
       0.075172804 -0.12329696 -0.05927249 -0.09901388
0003c0 19 a1 15 bb 1f 04 40 3d a1 90 d9 3b c0 e5 8b bc
       -0.0022831617 0.04687893 0.0066395556 -0.017077327
0003d0 da f9 f2 3c 61 70 40 bb 21 92 83 3c b9 01 00 bd
       0.029660154 -0.0029363858 0.01606089 -0.031251643
0003e0 44 c9 62 bb d5 ab 7a 3b 18 01 ec 3c dd cf 09 be
       -0.0034604827 0.0038249393 0.028809115 -0.134582
0003f0 b2 c2 12 3d 1e 96 e9 bd 6c 59 87 3d 44 62 61 bd
       0.035830207 -0.11405586 0.06608853 -0.055025354

refine1.conv2.0.bias f4 [16]
000000 bf 9c ab bd 42 34 9e bd 3e e6 d7 bd bd e7 ae bd
       -0.08379506 -0.07724811 -0.10541962 -0.08540294
000010 44 8a 13 3c b5 03 ba 3d 43 99 be bd 8d 36 16 bc
       0.009005133 0.09082738 -0.09306576 -0.009168279
000020 29 51 86 bb e1 e9 e0 bc 97 b5 8e 3d 0b 81 e7 3d
       -0.0040990305 -0.027455272 0.06968229 0.1130391
000030 5f 1d 8e 3c f7 5e bc bc 69 b6 76 bc 98 f3 8f bd
       0.01734799 -0.022994502 -0.015058138 -0.07028884

refine1.conv2.1.weight f4 [16]
000000 02 c2 82 3f d7 e4 7e 3f f3 99 76 3f 41 52 81 3f
       1.0215456 0.9956793 0.9632866 1.0103227
000010 61 96 84 3f 7f aa 7d 3f a1 3e 7f 3f cd 86 86 3f
       1.0358392 0.9908828 0.9970494 1.0509888
000020 7b 6c 81 3f f1 dc 82 3f 88 2f 78 3f e0 73 75 3f
       1.0111231 1.0223676 0.96947527 0.95879936
000030 c2 2b 81 3f 41 dc 7d 3f 2b a1 81 3f 30 49 81 3f
       1.0091479 0.99164206 1.012731 1.010046

refine1.conv2.1.bias f4 [16]
000000 40 71 83 bd 81 cf 32 bc 96 62 a6 bd 85 e5 dd bc
       -0.06418085 -0.010913731 -0.081242725 -0.027086983
000010 ae 08 c2 bd a7 24 02 bd 8f 2a 39 bd b8 0b b7 bd
       -0.09474312 -0.031773236 -0.045206603 -0.08937782
000020 c5 8a 4c bd 97 59 e3 bd 4e 23 c2 bd be ed 81 bd
       -0.04993703 -0.11101072 -0.0947939 -0.06344174
000030 b3 94 be bc 41 ee 18 bd 45 c4 05 3c 2b 1f 85 bd
       -0.023264265 -0.03733659 0.00816447 -0.065000854

refine1.conv2.1.running_mean f4 [16]
000000 d4 e7 7c 3b 94 80 9d bd d7 39 19 be 77 c4 41 be
       0.0038590329 -0.0769054 -0.1496347 -0.18922602
000010 da 7b 0a bd 42 67 75 3e 69 bf 45 be 5d f1 fc bc
       -0.03380952 0.23965171 -0.19311298 -0.03087681
000020 ee a6 5b 3d 38 69 59 bd 8a 14 57 3e 04 a1 d3 3d
       0.053625993 -0.05307886 0.21003929 0.10333446
000030 9d 60 19 3e cc 7f 08 3e 8c af 96 bc eb 6c 51 be
       0.14978261 0.1333 -0.018394254 -0.20451705

refine1.conv2.1.running_var f4 [16]
000000 22 cd 2d 3e 24 7f 11 3e 28 03 45 3e 65 74 1f 3e
       0.16972783 0.14208657 0.19239485 0.15571745
000010 d6 70 49 3e 4c db 78 3e d6 1f 63 3e 17 81 14 3e
       0.1967195 0.24302405 0.22180113 0.14502369
000020 e3 b9 2c 3e 74 59 26 3e 38 bf 7e 3e c9 ff 1e 3e
       0.16867785 0.16245061 0.24877632 0.15527262
000030 7b ec 6b 3e 14 49 3d 3e 00 9a 13 3e ea ed 85 3e
       0.23039429 0.18484908 0.14414215 0.26158077

refine1.conv3.0.weight f4 [2, 16, 3, 3]
000000 22 ba 90 3d 1a 65 f3 3b ef 79 df bd 5c c5 2a 3d
       0.07066752 0.0074278237 -0.10911929 0.041692123
000010 2b f3 48 3c 15 49 28 3c fd 57 95 bd 71 8a 3b 3d
       0.012265007 0.01027133 -0.07292173 0.045786325
000020 a3 5e c8 3c 8d 8d 3e 3c e3 a1 57 3d a1 00 99 bc
       0.024459189 0.011630428 0.05264462 -0.018677058
000030 c6 a5 d5 bc 5d 65 22 3d c4 01 2a 3c df c2 be 3d
       -0.026080023 0.03964745 0.0103763975 0.093145125
000040 b8 42 b0 3c 10 31 ee 3c 77 db 89 3d e3 e5 ad 3c
       0.021516189 0.02907613 0.06731313 0.021227783
000050 75 54 ab 3b 63 46 9a bd ab 91 9c 3c d8 28 87 3b
       0.005228574 -0.075329565 0.019112429 0.004124742
000060 9b 1b a8 3d ff 49 d0 bd 2b ae 65 3d 07 b6 15 bd
       0.0820839 -0.10170364 0.056074303 -0.036550548
000070 99 64 76 3d 16 54 91 bd ad ea 9c bc 0d cb 85 3d
       0.06015453 -0.07096116 -0.01915487 0.065328695
000080 dd da 44 3d 98 b5 50 3d 09 d1 9c 3c 1f 36 9f 3d
       0.048060287 0.05095443 0.019142644 0.07773995
000090 91 04 dc 3d b6 3f 7f bd 3d d7 12 bb 98 fe 39 bd
       0.107430585 -0.06231662 -0.0022406124 -0.045408815
0000a0 e9 08 89 3d d3 a1 82 bc 27 89 87 3d 46 48 82 3a
       0.066911526 -0.015946304 0.066179566 0.0009939752
0000b0 d9 61 12 bc fe e3 6a 3d 7a a3 9a bd e5 e7 b9 bc
       -0.0089344615 0.057346337 -0.07550712 -0.022693584
0000c0 6f 35 9b bd ea 18 58 bd 04 08 4a 3d 9d 63 94 3d
       -0.07578551 -0.052758135 0.04932405 0.07245562
0000d0 57 2d 35 bd 88 96 5d 3d 06 c9 9d bc 47 e1 4f 3c
       -0.044232693 0.054098636 -0.019260895 0.012687988
0000e0 d0 7b 9a bc 93 fe 96 bd bc 6c 2f 3d a0 41 91 3d
       -0.018857867 -0.07372775 0.042828307 0.07092595
0000f0 8a a9 02 bb d4 95 a5 3c 59 8e 58 3d bb 0b 92 bc
       -0.001993748 0.020213045 0.05287013 -0.01782786
000100 15 5c b4 3d 57 b7 4c bd 46 ac 43 bd ed 40 9c 3d
       0.08806626 -0.049979534 -0.047771715 0.07629571
000110 ee 8b c1 3c 0a 84 13 3c 5f 96 37 3c 5c 30 6f bd
       0.023626294 0.009003649 0.011205285 -0.05839573
000120 60 10 9f bd 67 ba 18 bd f6 24 c2 bd 1a 12 08 bc
       -0.07766795 -0.037287142 -0.09479706 -0.008305097
000130 d5 a5 79 3c 07 f9 45 bd 2e 6f 26 bd cb 3d 98 bd
       0.015237291 -0.048333194 -0.040633373 -0.07433661
000140 29 e3 84 bd 54 10 de bd f9 b5 60 bd 62 48 61 3c
       -0.0648864 -0.10842958 -0.054861043 0.013750168
000150 a1 fb b6 3d 0f 0a 8d 3d d1 a4 6f bd a4 22 68 bc
       0.08934713 0.06886684 -0.05850679 -0.014168415
000160 e8 c4 90 bd d1 e8 84 3d c2 01 97 3d 68 15 88 3b
       -0.07068807 0.06489719 0.07373382 0.0041529424
000170 1c 2d c7 3c 47 7e 43 3d 04 ca 87 bd de bd c8 bd
       0.024313502 0.04772785 -0.06630328 -0.09801839
000180 65 8d ec bc 18 a1 af ba 1d fb 26 bd 1a b3 90 3d
       -0.028876016 -0.001339945 -0.040766824 0.07065411
000190 31 9a a8 bd ea 67 9e bd a7 34 5c 3d e2 3d 18 bd
       -0.08232535 -0.07734664 0.05376115 -0.03716839
0001a0 32 1b c2 bc 7b 91 62 bc a4 06 0f 3d de 9d 0e bd
       -0.023694608 -0.013828631 0.034918442 -0.034818523
0001b0 e9 ae 45 bd ce ae 86 bd eb 86 cd bb 3b 29 6e bd
       -0.04826251 -0.0657631 -0.006272187 -0.05814479
0001c0 6c 7e 0f bd 48 f3 32 bd f8 e0 92 bc 27 cb 82 bd
       -0.035032675 -0.043689042 -0.01792954 -0.063864045
0001d0 97 45 93 3d a0 24 05 bd af 11 69 bd 69 af 8a 3b
       0.071910076 -0.03250563 -0.05690163 0.0042323363
0001e0 a0 bb 01 3d c2 b5 83 bd 3b 80 35 3d c3 90 87 bc
       0.031673074 -0.06431152 0.044311743 -0.01654852
0001f0 71 a9 6d 3d 57 e4 8f bd ba 01 78 bd 4e cf 89 3d
       0.05802292 -0.07025974 -0.06054852 0.06728993
000200 e5 b4 50 bc 15 21 c5 3d e2 84 58 bd 7e 1f 37 bd
       -0.012738441 0.096254505 -0.052861102 -0.044707768
000210 2d b6 9e 3d 8e 78 af bc 8f ad c6 3d ab 12 bb bd
       0.07749591 -0.02141979 0.097010724 -0.0913442
000220 a6 55 b6 bc 5a 4f 31 3d 19 f6 39 bd 55 35 7c bd
       -0.022257637 0.043288566 -0.045400713 -0.0615743
000230 88 85 3d 3d f9 74 a6 3c b5 ea ad bc f6 ed 6d bc
       0.046269923 0.020319449 -0.021230081 -0.014522066
000240 6f ce 4c bd 54 44 06 3d 14 13 a5 3c ac b1 22 bd
       -0.050001558 0.032780007 0.020150699 -0.039720222
000250 6c f3 a5 bd 1e 3d df bd 44 ae 94 bd 15 f6 0d bc
       -0.0810307 -0.10900329 -0.07259801 -0.008664628
000260 99 f6 b7 3d 28 4c b0 bc ba 9a 68 3d 92 be cd 3c
       0.08982582 -0.02152069 0.056788184 0.025115285
000270 ec c7 18 3d 15 56 a4 bd 69 42 c6 3d 87 0d 69 3c
       0.037300035 -0.08024231 0.096806355 0.014224417
000280 78 77 84 3d db 2e c1 bb 0f a6 71 bd 97 75 36 bd
       0.06468099 -0.005895478 -0.058996256 -0.044545736
000290 87 ab 9b 3c 4d 60 0a bd df 37 02 3d 60 83 37 bd
       0.019002689 -0.033783246 0.031791564 -0.044803023
0002a0 aa 72 18 3c e1 e4 b8 3d 32 93 9e 3d 67 1b 8e bd
       0.009304682 0.0902803 0.07742919 -0.0693882
0002b0 df 2f 3a bd fc 21 c5 bd 57 cd c1 3b 90 b5 02 3c
       -0.04545581 -0.09625623 0.005914371 0.007977858
0002c0 5c 99 22 bd 5d 2e c4 bc 23 d5 d2 bc 9a 41 4b 3d
       -0.039697036 -0.023947889 -0.025736397 0.04962311
0002d0 42 4e 5c bd fb 03 99 3a e5 fa 1a 3d 25 ae 78 bd
       -0.05378557 0.001167416 0.037836928 -0.060712952
0002e0 10 80 fb 3c 0b 27 72 bd 5a 48 75 bc a1 cd 34 bc
       0.030700713 -0.059119266 -0.014970863 -0.011035354
0002f0 0d bc fe 3d 4c aa a9 3d d5 d4 2f 3d 82 a9 30 bd
       0.124382116 0.08284435 0.04292758 -0.043130405
000300 4e 20 46 3d d1 ff 06 3d 87 63 06 bd 19 97 1d bd
       0.048370652 0.03295881 -0.03280976 -0.038474176
000310 41 86 92 bd fa 3d 2e 3d 59 8d b4 3d 3e 7a 10 3d
       -0.07154513 0.042539574 0.088160224 0.03527283
000320 5b b5 1c bc 92 7d 36 bc 76 2d ce 3d 30 f6 15 3d
       -0.009564723 -0.011138337 0.10067265 0.036611736
000330 48 65 8e bd 01 c8 17 3b 64 7b 23 3c 1b a9 d8 3d
       -0.069529116 0.0023159983 0.009978149 0.10579129
000340 89 a8 06 bd 17 4a 04 3e aa 43 83 3d bf a8 1a 3d
       -0.03287557 0.12918888 0.0640939 0.037758585
000350 a3 87 9d 3c 6b cb 2b bc 36 94 65 bd c2 6d 36 bd
       0.019229716 -0.01048551 -0.056049548 -0.044538267
000360 bd 16 07 3d 75 98 5c bd 78 46 93 bd 3b b0 11 3d
       0.03298067 -0.05385633 -0.07191175 0.035568457
000370 a6 a1 41 bd 3f 82 1d bd 35 85 71 3d ec 81 89 3b
       -0.0472733 -0.03845429 0.058964927 0.004196396
000380 b1 90 63 bd d4 cd 4d 3d b0 c0 a9 3d 4d d4 85 3d
       -0.05555791 0.05024512 0.08288705 0.06534634
000390 a6 7d 8b bd cf 5c e0 bd 08 3c 86 bd 9d e0 16 bd
       -0.06811075 -0.10955202 -0.06554419 -0.0368353
0003a0 a3 f0 b9 bd 0d 42 9b bb 4d 9d 09 3d b8 7d 85 bc
       -0.09079101 -0.0047380985 0.03359728 -0.016295299
0003b0 c6 81 9d bd 30 32 3d bd 5e df 4d bc ff 44 e0 3c
       -0.07690768 -0.04619044 -0.012565462 0.02737665
0003c0 ad 60 3c bc 50 8f 27 3d 5a 02 83 3d 36 f7 dc 3c
       -0.011497659 0.040908158 0.06396933 0.026973348
0003d0 53 47 67 bd bb f8 25 bd 95 de 6c bd f9 13 12 3d
       -0.056464504 -0.04052041 -0.05782946 0.03566358
0003e0 d0 87 ee 3c ac 98 a4 bc 2b 46 77 3d b9 0d 6e 3d
       0.029117495 -0.02009233 0.06036965 0.058118556
0003f0 4c a6 a9 bc a7 0e b0 bd e2 7d 7e bd 60 cf de 3c
       -0.02070918 -0.08596545 -0.06213177 0.027198493

refine1.conv3.0.bias f4 [2]
000000 7f c8 29 3c 65 f0 91 3d
       0.010362743 0.0712593

refine1.conv3.1.weight f4 [2]
000000 be 9b 75 3f 62 c5 7b 3f
       0.9594077 0.9834806

refine1.conv3.1.bias f4 [2]
000000 29 fb 2e bd 0b 99 1a bd
       -0.042719994 -0.03774361

refine1.conv3.1.running_mean f4 [2]
000000 f6 d4 c8 bc df f4 af 3c
       -0.02451561 0.021479068

refine1.conv3.1.running_var f4 [2]
000000 34 f1 d8 3e d9 c4 8b 3e
       0.42371523 0.2729862

refine2.conv1.0.weight f4 [8, 2, 3, 3]
000000 0a de a9 3d 56 97 30 3e 9b 06 13 bc c8 68 ab 3d
       0.08294304 0.1724523 -0.008973743 0.08369595
000010 fc 82 63 3d 55 e9 8f be 13 c8 a3 3d 05 1f 9b bd
       0.05554484 -0.28107706 0.079971455 -0.07574276
000020 ea c6 f3 bd 2d 16 bc bd 1c d5 12 3e d9 18 03 be
       -0.11903174 -0.09183917 0.14339107 -0.12802447
000030 5e 09 57 bd 4e 26 a2 bd 1d 78 cd 3d 97 81 70 3d
       -0.052499168 -0.07917462 0.100326754 0.058717337
000040 aa cd 9e 3d a1 4a 53 bc 99 6e 8c 3d ea 6c 81 be
       0.07754071 -0.012896211 0.06857032 -0.25278407
000050 23 bd 6a be a2 b9 34 bd 41 8b 93 3e 27 4e 5f be
       -0.22923712 -0.044122346 0.2881718 -0.21807157
000060 7f 70 d8 bd c2 10 3a bd 81 bd 4c be 0e 07 b4 3d
       -0.10568332 -0.045426138 -0.19994165 0.08790408
000070 94 cc 32 3e 89 db 36 3e 79 99 70 bd 81 71 02 3d
       0.17460853 0.17857184 -0.058740113 0.031846527
000080 de 26 b6 bd 49 e4 55 3d 62 64 96 3c 0f 04 31 3d
       -0.08894132 0.052219663 0.018358413 0.04321676
000090 cf 05 03 be 7c 75 40 3d 56 fb 0f 3e 20 dd c1 3d
       -0.12795185 0.04698704 0.14060721 0.09466004
0000a0 d4 23 4e be 62 ba 1d be 2d 04 f3 3d 32 a8 21 be
       -0.20130855 -0.1540313 0.11866031 -0.15786818
0000b0 ac 2d 59 3b 2b 2a ad 3d 6c 2b 88 bd 14 61 43 be
       0.0033138795 0.084553085 -0.06648907 -0.19080001
0000c0 c8 39 50 be dd f9 b0 bd 6f 52 cc 3c cf 76 9e bd
       -0.20334542 -0.08641408 0.024941651 -0.07737505
0000d0 5d d4 78 3d fa 4b 60 be 0a d6 f1 bd ec 6b 7b 3e
       0.0607494 -0.21903983 -0.11808403 0.24552888
0000e0 27 40 0c be 31 60 d5 3d 3b d9 07 3e 7f 4e 90 3e
       -0.13696347 0.10418738 0.1326646 0.28184888
0000f0 09 ed 96 bd d4 75 e0 bc 28 0c fd 3d 9a 0b 23 bd
       -0.073694296 -0.027399935 0.12355834 -0.039805986
000100 ec be f9 3d bc 6c 86 3d f4 e1 07 3e 9b 5f 30 be
       0.121946186 0.06563708 0.13269788 -0.1722397
000110 3e ff 0b bd c8 1a 1b be d2 ad c1 bc 63 59 9b 3c
       -0.034178965 -0.15146935 -0.023642454 0.018963521
000120 5c 6a 2a be 0f d5 6a 3e 6e 2a 35 3e 32 8e 9e 3d
       -0.16642135 0.22932838 0.17691967 0.07741965
000130 c5 5f 68 be a7 02 b4 bd 93 d8 18 be 7e e0 4e be
       -0.22692783 -0.087895684 -0.14926367 -0.20202824
000140 3d 45 ea bd ce 28 61 3d a6 91 57 3e ec 43 d3 bc
       -0.114389874 0.054970555 0.21051654 -0.025789224
000150 28 15 21 be fc fe 06 3e 5a c4 a1 bd 78 45 2c 3e
       -0.15730727 0.13183206 -0.07898779 0.16823375
000160 f0 f1 01 be 75 33 a5 bd 3f 13 82 bb 56 65 a5 3d
       -0.12689948 -0.08066455 -0.0039695795 0.08075969
000170 4d 48 84 3d b5 5b 4d 3e 61 ca e5 bc f2 84 5c be
       0.06459103 0.20054515 -0.028050603 -0.2153509
000180 9b 99 03 be d0 c6 bb bd e9 7f a3 3c 2a dd f5 ba
       -0.12851565 -0.0916878 0.019958453 -0.0018757929
000190 0c a2 2c 3d 8e 35 39 be 1b f1 40 3e 1c 0e 1c be
       0.042146727 -0.18086836 0.18841974 -0.15239757
0001a0 79 b4 9c bd cc 43 aa 3d dd 02 b8 bd ab 26 ff bd
       -0.0765161 0.083137125 -0.08984921 -0.12458547
0001b0 e5 60 a3 bd 75 ec 58 3c d1 b1 22 be 99 4f 4a be
       -0.079774655 0.0132399695 -0.15888144 -0.19756927
0001c0 32 34 29 3e 3e f7 c5 3d e4 52 66 bd 16 39 35 be
       0.16523817 0.09666298 -0.056231394 -0.17697558
0001d0 33 b0 40 bd 07 18 6b 3d 73 c4 70 be 17 ff 47 be
       -0.047043037 0.05739596 -0.2351244 -0.19530903
0001e0 8d eb d4 3d 39 47 23 bd d4 a5 4e bd d1 37 06 3e
       0.1039649 -0.039862845 -0.050451115 0.1310723
0001f0 d1 ca bc 3d 01 9a a2 bd c7 eb 99 3c a2 39 a8 3c
       0.09218372 -0.0793953 0.018789185 0.020535294
000200 a3 05 fd bd 3a fb 64 be 9f ea 5c be 4d 97 5e 3e
       -0.12354591 -0.2236146 -0.21573876 0.21737404
000210 09 5f 39 3e 6b 66 57 3e e9 61 51 bd bc 33 d7 bb
       0.1810266 0.21035163 -0.051118765 -0.0065674465
000220 7e fe 11 be 9f 4f c9 3d 2a b3 bf 3d f7 40 49 bc
       -0.14257237 0.0982964 0.09360345 -0.012283555
000230 c2 08 fa 3b bc 14 cd bd 1a 70 2e 3e de cd 9e bd
       0.0076304385 -0.100137204 0.17034951 -0.0775411

refine2.conv1.0.bias f4 [8]
000000 5c 8d 59 bd c5 ca a4 bc e5 74 6f 3e d6 eb 69 3e
       -0.053113326 -0.02011622 0.23384435 0.2284387
000010 ba 4f 5a 3e 54 5a 25 3e 35 80 ec bd b9 25 36 be
       0.21319476 0.16147739 -0.11547891 -0.17787828

refine2.conv1.1.weight f4 [8]
000000 59 37 82 3f 91 a1 81 3f 29 35 7d 3f 7b 10 80 3f
       1.0173141 1.0127431 0.9890924 1.000503
000010 1a 40 80 3f db 9f 81 3f 5e 55 7a 3f 67 1b 7e 3f
       1.0019562 1.0126909 0.9778651 0.9926056

refine2.conv1.1.bias f4 [8]
000000 46 4e 3e be bd bd d6 bc e0 c1 6b bd 42 bb e0 bd
       -0.18584546 -0.026213521 -0.05755794 -0.109732166
000010 7a 16 20 3d c3 32 48 bd 0b 35 6b bd 72 41 c3 bd
       0.039083935 -0.048876535 -0.057423633 -0.09533967

refine2.conv1.1.running_mean f4 [8]
000000 d5 47 57 bd 21 53 93 bb d3 6d 98 3e b7 12 4b 3e
       -0.05255874 -0.0044959937 0.2977129 0.19831358
000010 bd 2a 72 3e 62 63 43 3e c4 5c 92 bd 5b c7 3a be
       0.23649116 0.1908088 -0.071466 -0.1824011

refine2.conv1.1.running_var f4 [8]
000000 99 c5 7b 3d 22 8b 00 3e f8 f6 db 3d 48 5c b0 3d
       0.06146774 0.12553075 0.10740465 0.08611351
000010 1a 3d fb 3d f4 ba 93 3d eb ee e0 3d ca 15 bf 3d
       0.122675136 0.07213393 0.1098307 0.09330328

refine2.conv2.0.weight f4 [16, 8, 3, 3]
000000 4c bb 6d bd ca 9c 9a 3d 46 7a 44 3c 18 25 9f 3c
       -0.05803995 0.075494364 0.011992043 0.019426867
000010 38 9c 7c 3d 32 a8 27 bd 38 ce 2e bd 73 f9 05 bd
       0.06167242 -0.040931888 -0.042677134 -0.032708596
000020 c3 d6 a2 3c cb 0f 2f 3c b3 ba 7f bc 20 ac 94 bd
       0.019877797 0.010684918 -0.015608477 -0.07259393
000030 73 1f 89 bd 94 f9 8e 3d 76 61 f0 bd da b9 20 bb
       -0.066954516 0.06981197 -0.11737339 -0.0024524839
000040 51 ed 11 bd c5 fa a9 3d b6 39 86 3c f0 0f b2 3d
       -0.035626713 0.082997836 0.01638494 0.08694446
000050 bd 1a aa 3d 46 19 82 3c cd 48 54 ba 34 fd 8c 3c
       0.08305881 0.015881192 -0.00080980064 0.01721058
000060 5f ac 05 bd ce 2f d5 bd c9 6a f7 bd 7a 0a c9 3c
       -0.03263509 -0.10409509 -0.120809145 0.024541128
000070 5a 15 58 bd 8e 4c 93 bd a7 d7 d6 3d cc be b1 3b
       -0.052754737 -0.07192336 0.10490351 0.005424356
000080 00 cb bd 3d 57 7a 11 bd fc e8 a6 3d ac e9 db bc
       0.09267235 -0.035517063 0.08149907 -0.026844822
000090 66 96 a3 3d 2a 19 85 bb c8 ef 06 bd 0e 5f 78 3d
       0.079876706 -0.0040618377 -0.032943517 0.060637526
0000a0 ee 16 71 bd 26 60 a2 3d 02 91 a7 3d c8 15 9a bd
       -0.058859758 0.07928495 0.08181955 -0.07523686
0000b0 d7 5d b1 3d 73 17 05 bd a5 24 0f 3e 8d 5b 84 bd
       0.08660477 -0.032493066 0.13978823 -0.064627744
0000c0 b2 17 ed bd ed 99 58 bd 49 db 85 bd d1 bb 92 bd
       -0.11576785 -0.05288117 -0.06535966 -0.071647294
0000d0 84 5a e4 3d f7 43 0d bc 32 fb 2a 3d c4 34 df bd
       0.11150077 -0.008622161 0.041743465 -0.10898736
0000e0 d9 ec a9 bd ca 21 37 bc 83 55 ae 3d 7d 3e 9a bd
       -0.08297128 -0.0111774895 0.08512404 -0.0753145
0000f0 ee ca 18 3d 41 06 a4 bc 34 24 5c bd bf a5 83 3c
       0.037302904 -0.020022513 -0.053745463 0.016070245
000100 44 93 52 3d 9d 00 58 3d 6b 33 e8 3d ce c7 20 3c
       0.051409975 0.05273496 0.11337932 0.009813262
000110 5c ae 59 3d 2d 35 0e bd 3c 2d 0f 3e 7e d7 30 bd
       0.053144798 -0.03471868 0.139821 -0.04317426
000120 61 9f cc bd fe 20 79 3d a5 df e4 3d 82 97 b5 3d
       -0.099913366 0.06082248 0.11175469 0.088667884
000130 5a de 5f bd c1 e2 82 bd de cc 56 bd 47 03 4e bd
       -0.05465541 -0.06390906 -0.05244147 -0.050296094
000140 97 e6 07 be 12 c8 69 bb 60 76 d0 3d a2 48 ca 3d
       -0.13271557 -0.003567223 0.10178828 0.09877135
000150 e7 13 2a 3c 1f d9 be 3d a9 bb 04 bd 31 d6 9c bd
       0.010380722 0.09318756 -0.03240553 -0.07658041
000160 cb bc 82 bb 7d 73 68 3d 5e 06 ab bd aa 48 11 3d
       -0.003989791 0.056750763 -0.08350824 0.03546969
000170 36 a3 9e bc 9c 6f f6 3c a2 85 7b bd f9 3a e9 3d
       -0.019364934 0.030082516 -0.06140674 0.11388201
000180 c3 cc 94 bc 98 ba 7d 3d 4f ed ce 3b 8c 11 a9 3c
       -0.018164044 0.061945528 0.0063149105 0.02063825
000190 33 07 42 3d d6 ba a1 bd 59 3e b6 bd ad b2 c4 3d
       0.047370147 -0.07896964 -0.088986106 0.09604392
0001a0 2e fa da 3d 09 9f b6 ba 52 61 51 3d c9 15 ef bd
       0.10692249 -0.0013932894 0.051118203 -0.11674077
0001b0 8a ad ee bd 12 18 80 bd 8f 93 15 bd 3a 86 2a 3e
       -0.11654194 -0.06254591 -0.036517676 0.16652766
0001c0 ac 7a 4e 3c 0b 12 b3 3c e7 06 1c bb 46 43 d3 bd
       0.012602489 0.02185919 -0.0023807825 -0.10315566
0001d0 b3 81 e2 bd 32 22 48 3a b3 72 ce 3d cb 9f 95 3d
       -0.110598944 0.000763449 0.10080471 0.07305869
0001e0 bd f1 79 bd 81 8b 97 bd 53 10 a8 3d c2 97 4b 3d
       -0.061021555 -0.07399655 0.082062386 0.049705274
0001f0 ef f1 e4 bd 6e 0f 64 3d 4e 67 bf 3d 46 d6 3b 3d
       -0.11178958 0.055678777 0.09345876 0.045858644
000200 b4 69 1f bc 8c 52 04 be 1b b5 89 3d c1 7f 87 bd
       -0.009729791 -0.12922114 0.06723996 -0.06616164
000210 66 cb 99 3d 0f a3 29 bd e6 bc cc bb f0 84 bc bd
       0.07509498 -0.04141527 -0.0062481044 -0.09205043
000220 bb 8d 83 3d 96 03 bb 3d e6 33 a7 3d 3b be 2f bb
       0.06423517 0.09131543 0.08164196 -0.0026816267
000230 ac 3a 01 bd 49 2d 51 bd 4f e0 a2 bc de d8 3b 3c
       -0.031550094 -0.051068578 -0.01988235 0.011465279
000240 9e dd e2 bd c8 8a a0 bd 16 e0 96 3a 71 29 b4 bd
       -0.110774264 -0.078389704 0.0011510875 -0.08796967
000250 e6 1c f0 3d 44 2e b2 bd 19 6b 48 3d 3d ce 99 3d
       0.11724262 -0.08700231 0.04893026 0.0751004
000260 c3 6c a5 bd 82 34 21 3d de 55 2d bd ea 0b a3 3d
       -0.08077385 0.039356716 -0.042318217 0.07961257
000270 50 03 5b bd d3 ec c8 3d d4 5c 08 be ba c4 f9 bd
       -0.053469956 0.09810796 -0.13316661 -0.12195726
000280 3a 6a f7 bd 13 36 58 3d fe 2d bc bc 12 6b 50 3d
       -0.12080808 0.052785944 -0.02297115 0.05088336
000290 2e 62 c4 bc e5 e5 20 be a0 a4 47 bd 2b 78 18 3e
       -0.023972597 -0.15712698 -0.048740983 0.1488959
0002a0 38 85 ce 3d ca b2 05 bd 59 59 a5 bb d4 48 93 bd
       0.10084003 -0.03264121 -0.0050460515 -0.07191625
0002b0 d3 7d 5c 3d e1 49 91 bd 3b 68 86 3d a0 2f 5b 3c
       0.053830933 -0.070941694 0.06562849 0.013378054
0002c0 ae d0 9a bc 6a 5a cf 3d 50 9c bd bb 4b d7 87 bd
       -0.018898334 0.10124667 -0.005786456 -0.06632861
0002d0 e5 ce bf 3d 48 4f 21 3d b9 96 21 bd 70 b1 83 bc
       0.09365634 0.03938225 -0.03945038 -0.01607582
0002e0 9e 9e d7 3c 6b fe 37 3d 05 7d 58 bd a9 81 75 bc
       0.026320752 0.044920366 -0.052853603 -0.014984527
0002f0 a5 cf 4d bd d7 6a 41 bd e2 e6 77 3d 8a 95 a5 bd
       -0.050246853 -0.04722103 0.06052292 -0.08085163
000300 88 da 2d bd 8e 86 27 3d 3b d6 90 bd 09 1d 84 3d
       -0.042444736 0.040899806 -0.07072111 0.064508505
000310 51 d4 cb bd 57 9a a2 3c 25 51 23 bc e9 cd 0b bb
       -0.099526055 0.019848986 -0.009968077 -0.0021332449
000320 f7 d1 3c 3b 19 2d e2 3d 5c 30 a2 3d c7 0f 33 3d
       0.0028811672 0.11043758 0.0791938 0.04371622
000330 9d 45 47 bd 49 13 3d 3d c6 a2 90 bc ae a3 03 3d
       -0.048650373 0.04616097 -0.017655741 0.03213852
000340 e2 f9 dd 3d 1a 19 99 bc 24 81 ae bd 59 47 8c bd
       0.10838677 -0.018688727 -0.08520725 -0.06849546
000350 da 1a b9 3d 48 08 98 3d 23 be 8d 3d 19 b7 c5 bd
       0.09038325 0.074234545 0.06921031 -0.09654064
000360 3e e2 0b 3c 70 7d 2a be 5e 63 a3 3d 72 b7 d6 3c
       0.008537827 -0.16649413 0.07977937 0.02621052
000370 64 4f 10 3d e6 fe e5 bd a7 5e 84 bd bc 75 9e 3c
       0.035231963 -0.11230259 -0.06463366 0.01934325
000380 1c 4d fd 3c 7b 7c 2b 3d 97 c4 db bd a2 aa 18 3d
       0.030920558 0.04186676 -0.10730856 0.037272103
000390 88 6c 70 3c 72 4c 93 3d 9b 96 3e bd d8 84 d7 3c
       0.014674313 0.07192315 -0.046530347 0.026308462
0003a0 cd 54 16 be c8 f5 90 3d e9 97 4d 3d 5b a5 52 bd
       -0.14680786 0.07078129 0.0501937 -0.051427227
0003b0 2f d9 d3 bd 3f f4 99 bd 56 07 e3 3d 31 b9 97 3d
       -0.10344159 -0.07517289 0.110853836 0.07408369
0003c0 9a 75 dc 3c 78 e8 95 3c 82 c1 a4 bb 5c 68 2d 3b
       0.026911546 0.018299326 -0.0050279507 0.0026459908
0003d0 f1 8b 28 bd d0 ba b8 bd 4d c5 8b 3d 84 52 42 3d
       -0.041149084 -0.09020007 0.068247415 0.047441974
0003e0 ea fe 65 3d 2c 5b f0 bd f9 1c e1 bc fb 35 97 bd
       0.056151308 -0.1173614 -0.027479636 -0.07383343
0003f0 be 37 86 bd 86 15 03 3d 8e 39 d1 bd 00 9f d6 3d
       -0.06553601 0.03200295 -0.10216056 0.104795456

refine2.conv2.0.bias f4 [16]
000000 c7 eb f1 3d 65 37 30 bd af d0 a8 3c d5 58 ce bd
       0.11812549 -0.04302158 0.02060732 -0.10075537
000010 f2 a8 7c 3d 20 32 16 3c bf 19 d1 3d 51 18 4a bd
       0.061684556 0.009167224 0.10209989 -0.049339596
000020 d2 60 e6 3d 1a b7 e6 bd a3 54 98 bd ed 7b e8 3d
       0.11248936 -0.112653926 -0.07438018 0.11351762
000030 2e 9c 01 3d b2 f8 44 3d 7b bf ee bd 3f b5 d2 bd
       0.031643085 0.048088737 -0.11657616 -0.10288476

refine2.conv2.1.weight f4 [16]
000000 d0 01 82 3f fe c7 78 3f fe 8c 80 3f 44 4d 78 3f
       1.0156803 0.97180164 1.0043027 0.969929
000010 84 56 7e 3f 99 04 79 3f 3e 52 7c 3f 85 c2 81 3f
       0.9935076 0.9727264 0.9856299 1.0137488
000020 83 a5 79 3f ad 13 83 3f 05 11 76 3f 18 a5 77 3f
       0.97518176 1.024038 0.9611972 0.9673629
000030 55 7b 85 3f 3f 31 8b 3f a5 d0 79 3f a0 0b 85 3f
       1.0428263 1.0874404 0.9758399 1.0394173

refine2.conv2.1.bias f4 [16]
000000 b4 87 98 bc 4f 34 0d bd 20 a7 c5 bd 13 23 35 bd
       -0.018619396 -0.034473713 -0.09651017 -0.044222903
000010 ff 33 28 be d7 19 75 bd 00 59 1a be e7 11 f5 bd
       -0.16426085 -0.059839096 -0.15073013 -0.11966305
000020 3a 61 b0 bd 06 a8 84 bd db d3 25 bd 78 b8 a9 3d
       -0.086122945 -0.064773604 -0.040485244 0.08287138
000030 87 e1 6f be 9c 99 62 be f2 01 aa 3c 9c 2b aa 3d
       -0.23425876 -0.2212891 0.02075288 0.08309099

refine2.conv2.1.running_mean f4 [16]
000000 92 d3 02 3e 78 27 03 bd 19 7e 43 3c 03 6f d3 bd
       0.1277602 -0.032020062 0.0119319195 -0.10323908
000010 61 dc 28 3d 00 89 39 bb 3a 05 c5 3d 43 26 7b bd
       0.041225795 -0.0028310418 0.096201375 -0.061315786
000020 53 05 1c 3e 02 4f 1a be 8e 68 84 bd 64 75 24 3e
       0.15236406 -0.15069202 -0.06465255 0.16060406
000030 c5 fb 3a 3c 77 1b 91 3d fe 19 12 be 90 61 fb bd
       0.011412566 0.07085317 -0.14267728 -0.12274468

refine2.conv2.1.running_var f4 [16]
000000 13 cb a6 3e 10 c3 35 3e 11 fb 96 3e 7a bf 1c 3e
       0.32576808 0.17750192 0.29488423 0.15307418
000010 06 22 0f 3e 63 c9 5b 3e fd 96 2e 3e 57 3e 41 3e
       0.13977823 0.21463542 0.17049785 0.18871437
000020 e1 b9 8b 3e b0 89 8e 3e 51 d4 6c 3e 87 23 86 3e
       0.27290252 0.27839422 0.23127867 0.2619898
000030 77 a8 38 3e 60 5e ca 3d ef 59 8b 3e f1 0a 54 3e
       0.18033014 0.09881282 0.2721705 0.20707299
