trained_models/encoder_ue_pretrain.pt (torch, 265547 bytes, 8 tensors)

conv_block.0.weight f4 [2, 2, 3, 3]
0.16348282 -0.11550689 -0.10698163 0.08935492 0.20165603 0.18715541 -0.12024446 0.16171959
-0.11016565 0.086100705 -0.27507663 0.07342119 -0.060798906 0.013941944 -0.17153983 0.08393414
0.1517499 0.19693837 -0.02449936 -0.20468393 0.10826499 0.0072346954 0.008958679 -0.1800456
-0.14987472 -0.021084035 -0.16788892 -0.06622183 -0.22744279 0.10514078 0.10473946 0.2350678
-0.011608596 0.12708619 0.011208033 0.08863098
00000000: 0a68 273e e08e ecbd 2f19 dbbd b6ff b63d
00000010: eb7e 4e3e aba5 3f3e ba42 f6bd d299 253e
00000020: 879e e1bd 9155 b03d d8d6 8cbe d95d 963d
00000030: 4608 79bd c06c 643c 23a8 2fbe aae5 ab3d
00000040: 5364 1b3e 36aa 493e e2b2 c8bc aa98 51be
00000050: 09ba dd3d 0611 ed3b 6cc7 123c e05d 38be
00000060: c278 19be 6db8 acbc 13eb 2bbe 509f 87bd
00000070: c3e6 68be 0d54 d73d a481 d63d 9db5 703e
00000080: fb31 3ebc e222 023e e6a1 373c 2984 b53d

conv_block.0.bias f4 [2]
0.17471065 -0.0824875
00000000: 59e7 323e 35ef a8bd

conv_block.1.weight f4 [2]
0.98354566 0.98759216
00000000: a6c9 7b3f d7d2 7c3f

conv_block.1.bias f4 [2]
-0.00023721463 0.015841663
00000000: d1bc 78b9 60c6 813c

conv_block.1.running_mean f4 [2]
0.17481546 -0.08334188
00000000: d302 333e 26af aabd

conv_block.1.running_var f4 [2]
0.0555822 0.042612016
00000000: 29aa 633d f089 2e3d

fc.weight f4 [32, 2048]
0.004669253 0.010109082 -0.008052818 0.01873049 -0.012323734 0.010365195 -0.011363488 0.008531835
-0.020000901 0.008793349 0.002911231 -0.0020200862 -0.0103359 0.0046248143 -0.019646855 0.013162807
-0.022819867 0.0077441414 -0.0006657435 0.004154162 0.012593523 -0.009614014 0.015934724 -0.017832898
0.0055105635 -0.009414435 0.018622672 -0.019412545 -0.015363379 -0.01942538 0.013257317 -0.0061901915
0.021540543 -0.024657909 0.018047024 -0.0060864026 0.009212644 -0.007533997 -0.01908712 0.0053699785
-0.0032883235 -0.0136801945 -0.0074395277 -0.01034041 -0.0044701174 0.0053811315 -0.0025412254 0.020152036
0.0045848237 0.008649514 -0.019223124 -0.001611186 0.00072312355 0.012934383 -0.008328897 0.002270971
0.009270283 0.0049340245 0.016163612 -0.0009080038 0.011272554 0.016454093 0.017865907 0.021586664
-0.006382799 -0.019066157 -0.026689611 0.018869113 -0.015302356 -0.0017038732 -0.014573719 -0.0058124093
-0.010259855 0.009510039 0.012524341 -0.005623854 0.013266103 0.0050642956 -0.014266246 -0.01267417
-0.004814445 -0.032309014 -0.014183943 -0.0046243686 -0.00031364599 0.0020659764 -0.0025444343 0.0007849613
-0.0036269405 -0.0062168534 -0.017475965 0.0003503849 -0.008045844 0.0019201861 -0.022301398 0.005599514
-0.002895353 -0.006921931 -0.0003401763 -0.01048351 0.0015193097 -0.022586811 -0.02601868 -0.005612307
-0.012611549 -0.014164103 -0.011387745 0.016729359 -0.0015069973 0.008209814 0.015656587 0.007837937
-0.013981752 -0.0011279135 0.009304548 -0.018202024 0.013648992 -0.007205169 -0.0042096674 -0.010561181
-0.0067062564 -0.016318364 -0.004572206 0.0004030564 -0.009396328 -0.009904373 0.01141489 0.0027697587
0.021962013 -0.01132389 -0.0045913104 0.017291656 0.0029939902 0.016120672 0.0071259825 0.016123148
0.011719798 -0.01371342 -0.011631586 -0.0015492793 -0.023455428 0.017369509 0.0097091105 0.019350545
0.012569592 -0.023982326 0.007786382 0.006228654 -0.0038553453 -0.0040203207 0.0008398169 0.0048769964
-0.019411186 -0.009678611 0.003565569 -0.013099199 0.015361346 0.011256172 -0.024280151 -0.010534881
-0.011788892 -0.013946447 0.0012113549 -0.03007455 0.003288068 -0.018007666 -0.0014159017 -0.007819009
0.015916001 -0.017784584 0.010217281 0.01561355 -0.020152228 -0.0037690294 0.001904878 -0.012409249
0.013890177 0.012997655 0.0061349627 0.017869227 0.0063453065 0.01922818 -0.022209719 -0.004758478
0.00625863 -0.0066279927 -0.015780725 0.013907861 0.01704149 0.007908125 0.005041429 -0.0057090768
-0.011171645 -0.013153527 -0.0057027284 -0.016213343 -0.031661533 0.006982932 -0.007813283 -0.019027779
-0.014996524 0.015622099 -0.008311923 -0.0045035114 0.0047472916 -0.004377405 -0.032330543 -0.0195151
0.0013375707 -0.029296802 -0.00563651 -0.02129519 -0.01201966 -0.010927423 -0.017551554 0.00948936
0.009375608 0.005421746 -0.0017243442 0.00818616 0.00817901 0.0128847 0.012541962 -8.6648115e-06
-0.015512927 -0.025175922 -0.012395431 -0.010298055 -0.029608082 -0.0019656604 -0.005653577 0.0053772056
-0.025168207 0.01511338 0.019434046 -0.0059313504 -0.0027693016 -6.462572e-05 0.027014384 -0.012795357
-0.0023413245 0.018696507 0.015020183 0.0120557835 -0.0010590219 -0.0031014297 -0.011999711 -0.017984021
-0.020982252 0.016772572 0.0061598094 -0.021935143 -0.011022866 0.019120034 -0.0041527785 0.0072607175
00000000: 8800 993b 90a0 253c f7ef 03bc af70 993c
00000010: 7de9 49bc c7d2 293c ec2d 3abc 1cc9 0b3c
00000020: eed8 a3bc fb11 103c 5aca 3e3b 6c63 04bb
00000030: e857 29bc c18b 973b 71f2 a0bc d0a8 573c
00000040: bbf0 babc 91c2 fd3b 4a85 2eba a31f 883b
00000050: 1055 4e3c 1984 1dbc 8a89 823c 4c16 92bc
00000060: f591 b43b 013f 1abc 938e 983c 0f07 9fbc
00000070: afb6 7bbc f921 9fbc 3835 593c 17d7 cabb
00000080: cb75 b03c 62ff c9bc 5ad7 933c 7270 c7bb
00000090: a1f0 163c bfdf f6bb 985c 9cbc a5f6 af3b
000000a0: ea80 57bb e522 60bc 48c7 f3bb d36a 29bc
000000b0: 107a 92bb 3454 b03b b08a 26bb e215 a53c
000000c0: 4a3c 963b b1b6 0d3c d079 9dbc 6e2e d3ba
000000d0: 0090 3d3a bcea 533c ed75 08bc 92d4 143b
000000e0: 63e2 173c 99ad a13b 8d69 843c 1b07 6eba
000000f0: 85b0 383c bcca 863c 865b 923c 84d6 b03c
00000100: cc26 d1bb a130 9cbc 2ca4 dabc 6693 9a3c
00000110: bcb6 7abc 7f54 dfba 9cc6 6ebc 0676 bebb
00000120: f318 28bc ffcf 1b3c e532 4d3c 4f48 b8bb
00000130: 125a 593c 64f2 a53b f9bc 69bc 52a7 4fbc
00000140: 7ec2 9dbb 7556 04bd c563 68bc 0488 97bb
00000150: da70 a4b9 5565 073b 86c0 26bb dcc5 4d3a
00000160: f7b1 6dbb bfb6 cbbb c129 8fbc ddb3 b739
00000170: b7d2 03bc c1ae fb3a 6cb1 b6bc 217c b73b
00000180: f6bf 3dbb 5ed1 e2bb b159 b2b9 07c3 2bbc
00000190: 9323 c73a fa07 b9bc 2025 d5bc 72e7 b7bb
000001a0: aca0 4ebc 8e10 68bc aa93 3abc 020c 893c
000001b0: 7086 c5ba 7582 063c 3e42 803c b16a 003c
000001c0: b813 65bc 7fd6 93ba 1a72 183c 691c 95bc
000001d0: 06a0 5f3c 5719 ecbb 40f1 89bb ce08 2dbc
000001e0: 28c0 dbbb 17ae 85bc 72d2 95bb 5051 d339
000001f0: 0ef3 19bc f445 22bc 8505 3b3c d784 353b
00000200: aee9 b33c d687 39bc b472 96bb 3ba7 8d3c
00000210: d236 443b 800f 843c 1381 e93b b114 843c
00000220: 6504 403c 41ae 60bc 6892 3ebc 3011 cbba
00000230: 9925 c0bc 804a 8e3c f612 1f3c 0985 9e3c
00000240: b1f0 4d3c 9576 c4bc e824 ff3b bd19 cc3b
00000250: f6a9 7cbb e5bc 83bb 2827 5c3a 36cf 9f3b
00000260: 3504 9fbc 0993 1ebc 52ac 693b 069e 56bc
00000270: 28ae 7b3c cf6b 383c 2be7 c6bc 7e9a 2cbc
00000280: 3226 41bc a37f 64bc 53c6 9e3a e75e f6bc
00000290: a17c 573b d084 93bc c795 b9ba 4d1b 00bc
000002a0: 4662 823c fab0 91bc 6266 273c facf 7f3c
000002b0: 4916 a5bc d201 77bb 19ad f93a 2a50 4bbc
000002c0: a093 633c 1ef4 543c cc07 c93b 7c62 923c
000002d0: 4aec cf3b 6b84 9d3c 28f1 b5bc 02ed 9bbb
000002e0: 3215 cd3b a22f d9bb 9446 81bc ccdd 633c
000002f0: 989a 8b3c 1591 013c 9232 a53b 3513 bbbb
00000300: 4609 37bc e481 57bc f4dd babb d8d1 84bc
00000310: 86af 01bd 14d1 e43b 4903 00bc 25e0 9bbc
00000320: fbb3 75bc d5f3 7f3c bb2e 08bc 3192 93bb
00000330: 2b8f 9b3b 5670 8fbb 086d 04bd 22de 9fbc
00000340: 6d51 af3a d9ff efbc 79b2 b8bb 4073 aebc
00000350: 1cee 44bc ef08 33bc 47c8 8fbc 4379 1b3c
00000360: 269c 193c e7a8 b13b 6403 e2ba 3e1f 063c
00000370: 4101 063c 591a 533c cd7c 4d3c 155f 11b7
00000380: ef29 7ebc bc3d cebc 3516 4bbc 2cb9 28bc
00000390: a68c f2bc 4fd2 00bb a441 b9bb 4533 b03b
000003a0: 8e2d cebc 1c9e 773c 2634 9f3c c65b c2bb
000003b0: 2c7d 35bb ab87 87b8 454d dd3c 9ea3 51bc
000003c0: e870 19bb 6b29 993c 3717 763c 9f85 453c
000003d0: e1ce 8aba 5b41 4bbb 709a 44bc 3a53 93bc
000003e0: f9e2 abbc a266 893c 3ad8 c93b 54b1 b3bc
000003f0: 4099 34bc 9ea1 9c3c 0814 88bb 50eb ed3b

fc.bias f4 [32]
-0.033287127 -0.012703979 0.0035483663 3.8687813e-05 -0.027654821 -0.028025175 0.012977398 -0.033311132
0.021977916 -0.003348741 0.004006303 0.050243814 -0.034579854 0.05393894 0.018147094 -0.027700873
-0.027482772 0.025159176 0.022511346 -0.032054316 0.00063123653 -0.01751576 -0.032916427 0.0046663024
-0.0063112895 -0.007724111 0.022496384 -0.012034436 0.03308235 -0.013549461 -0.039460227 0.018789504
00000000: 1558 08bd 5a24 50bc b58b 683b b944 2238
00000010: 5d8c e2bc 0d95 e5bc 279f 543c 4171 08bd
00000020: 080b b43c 8d76 5bbb 4e47 833b 75cc 4d3d
00000030: 9ba3 0dbd 14ef 5c3d 37a9 943c f1ec e2bc
00000040: 8d23 e1bc 9e1a ce3c b769 b83c 634b 03bd
00000050: 9179 253a 367d 8fbc 60d3 06bd c8e7 983b
00000060: efce cebb 8a1a fdbb 564a b83c 152c 45bc
00000070: 5c81 073d 8ffe 5dbc 0ca1 21bd 72ec 993c
